tests/data/for_masked_conv2d/masked_conv2d_for_weight.npy (npy, 452 bytes, 1 tensors)

array f4 [3, 3, 3, 3]
0	0x3e35fbd3	0.17771845
1	0x3eaddbf3	0.3395687
2	0x3e7e6d61	0.24846412
3	0x3e989fbb	0.29809365
4	0x3ecb6778	0.39727378
5	0xbf5490f7	-0.830337
6	0xbeb55137	-0.35413525
7	0x3fc91195	1.5708491
8	0xbea7d265	-0.32777706
9	0x3f799dec	0.97506595
10	0x3f625c90	0.8842249
11	0x3f36547c	0.7122266
12	0x3d4edea7	0.050505307
13	0x3d928121	0.07153536
14	0xc0014b87	-2.0202348
15	0xbf039193	-0.51394004
16	0xbfc154f1	-1.5104047
17	0xbf96cc59	-1.1781112
18	0xbf60333e	-0.8757819
19	0xc00e5b35	-2.2243168
20	0xbedac45e	-0.4272794
21	0xbfc2dcd9	-1.5223647
22	0xbfe7af92	-1.8100455
23	0x3f639cb3	0.8891098
24	0xbea6efca	-0.3260482
25	0xbed9323f	-0.42421147
26	0x3f38770c	0.7205665
27	0x3f8f50d7	1.1196545
28	0xbe7e3b1e	-0.24827239
29	0x3f22a1fc	0.6352842
30	0x3eb5122a	0.3536542
31	0xbffb22c3	-1.9619983
32	0x3f8a8ff9	1.0825187
33	0x3d3f4cb3	0.046704005
34	0xbe90a128	-0.28247952
35	0xbf770151	-0.96486384
36	0xbfedeff9	-1.8588859
37	0x3e80eac3	0.2517911
38	0xbfc43df4	-1.5331407
39	0x3f7121e9	0.9419237
40	0x3f2e2b21	0.6803456
41	0x3fd46225	1.6592451
42	0x3f910de3	1.1332363
43	0x3f8b4373	1.0879959
44	0x3e577bd3	0.21043329
45	0x3eec53c3	0.46157655
46	0xbf391cb6	-0.72309434
47	0x3f81a1d4	1.0127511
48	0x3e155bd1	0.14585806
49	0xbed060f8	-0.4069898
50	0x3c77a92e	0.015116019
51	0x3eb37c1b	0.35055622
52	0x3eb23f1a	0.34813768
53	0x3da466a0	0.08027387
54	0x3e2767c6	0.1634818
55	0x3f90c722	1.131077
56	0x3e73a94c	0.2379505
57	0x3f1e52d1	0.6184512
58	0xbeb12d63	-0.3460494
59	0x3e340aff	0.1758232
60	0xbe941c86	-0.28928012
61	0xbf78984e	-0.971074
62	0xbe5113a4	-0.20417649
63	0x3ecd5792	0.40105873
64	0xbf0930d7	-0.5359015
65	0x3e35c178	0.17749584
66	0x3f4f45ee	0.8096608
67	0x3ec8fca3	0.39255247
68	0xbf0fb90e	-0.56141746
69	0xbd1f8676	-0.03894659
70	0xbf842ac6	-1.0325553
71	0xbf20549d	-0.6262911
72	0xbf3760d2	-0.7163211
73	0xbe8a50c8	-0.27014756
74	0x3f179f59	0.5922752
75	0xbe8ec3e6	-0.27883834
76	0x3eef8830	0.4678359
77	0xbfed7050	-1.85499
78	0x3fc79a7d	1.5594021
79	0xbff5bc7a	-1.9198143
80	0xbe897f5b	-0.26854977
